…
    keras.layers.Dropout(0.5),
    keras.layers.Dense(4096, activation='relu', input_shape=(227,227,3)),
    keras.layers.Dropout(0.5),
    keras.layers.Dense(10, activation='softmax', input_shape=(227,227,3))
])

model.compile(loss='sparse_categorical_crossentropy', optimizer=tf.optimizers.SGD(learning_rate=0.001), metrics=['accuracy'])
model.summary()

Model: "sequential"
_________________________________________________________________
Layer (type)                 Output Shape              Param #   
=================================================================
conv2d (Conv2D)              (None, 55, 55, 96)        34944     
_________________________________________________________________
batch_normalization (BatchNo (None, 55, 55, 96)        384       
_________________________________________________________________
max_pooling2d (MaxPooling2D) (None, 27, 27, 96)        0         
_________________________________________________________________
conv2d_1 (Conv2D)            (None, 27, 27, 256)       614656    
_________________________________________________________________
batch_normalization_1 (Batch (None, 27, 27, 256)       1024      
_________________________________________________________________
max_pooling2d_1 (MaxPooling2 (None, 13, 13, 256)       0         
_________________________________________________________________
conv2d_2 (Conv2D)            (None, 13, 13, 384)       885120    
_________________________________________________________________
batch_normalization_2 (Batch (None, 13, 13, 384)       1536      
_________________________________________________________________
conv2d_3 (Conv2D)            (None, 13, 13, 384)       1327488   
_________________________________________________________________
batch_normalization_3 (Batch (None, 13, 13, 384)       1536      
_________________________________________________________________
conv2d_4 (Conv2D)            (None, 13, 13, 256)       884992    
_________________________________________________________________
batch_normalization_4 (Batch (None, 13, 13, 256)       1024      
_________________________________________________________________
max_pooling2d_2 (MaxPooling2 (None, 6, 6, 256)         0         
_________________________________________________________________
flatten (Flatten)            (None, 9216)              0         
_________________________________________________________________
dense (Dense)                (None, 4096)              37752832  
_________________________________________________________________
dropout (Dropout)            (None, 4096)              0         
_________________________________________________________________
dense_1 (Dense)              (None, 4096)              16781312  
_________________________________________________________________
dropout_1 (Dropout)          (None, 4096)              0         
_________________________________________________________________
dense_2 (Dense)              (None, 10)                40970     
=================================================================
Total params: 58,327,818
Trainable params: 58,325,066
Non-trainable params: 2,752
_________________________________________________________________

Fitting the model to our dataset

Using callbacks() from Keras to decide optimal epochs

keras.callbacks.callbacks.EarlyStopping() Either loss/accuracy values can be monitored by Early stopping call back function. If the loss is being monitored, training comes to halt when there is an increment observed in loss values. Or, If accuracy is being monitored, training comes to halt when there is decrement observed in accuracy values.
…
